Optimization terminated successfully.    (Exit mode 0)
            Current function value: -2.390991537[4;33mReloaded modules[24m: finance_util, strategy, plot_strategy, mpl_finance, machine_learning[0m
Model: "sequential_2"
_________________________________________________________________
Layer (type)                 Output Shape              Param #   
=================================================================
dense_5 (Dense)              (None, 64)                1344      
_________________________________________________________________
dense_6 (Dense)              (None, 32)                2080      
_________________________________________________________________
dense_7 (Dense)              (None, 8)                 264       
_________________________________________________________________
dense_8 (Dense)              (None, 3)                 27        
=================================================================
Total params: 3,715
Trainable params: 3,715
Non-trainable params: 0
_________________________________________________________________
 Final profits:  82.03000000000002
 Final profits:  82.03000000000002
[4;33mReloaded modules[24m: agent, methods, finance_util[0m
Model: "sequential_2"
_________________________________________________________________
Layer (type)                 Output Shape              Param #   
=================================================================
dense_5 (Dense)              (None, 64)                1344      
_________________________________________________________________
dense_6 (Dense)              (None, 32)                2080      
_________________________________________________________________
dense_7 (Dense)              (None, 8)                 264       
_________________________________________________________________
dense_8 (Dense)              (None, 3)                 27        
=================================================================
Total params: 3,715
Trainable params: 3,715
Non-trainable params: 0
_________________________________________________________________
 Final profits:  22.510000000000012
[4;33mReloaded modules[24m: agent, methods, finance_util[0m
Model: "sequential_2"
_________________________________________________________________
Layer (type)                 Output Shape              Param #   
=================================================================
dense_5 (Dense)              (None, 64)                1344      
_________________________________________________________________
dense_6 (Dense)              (None, 32)                2080      
_________________________________________________________________
dense_7 (Dense)              (None, 8)                 264       
_________________________________________________________________
dense_8 (Dense)              (None, 3)                 27        
=================================================================
Total params: 3,715
Trainable params: 3,715
Non-trainable params: 0
_________________________________________________________________
 Final profits:  14.430000000000028
[4;33mReloaded modules[24m: agent, methods, finance_util[0m
Model: "sequential_2"
_________________________________________________________________
Layer (type)                 Output Shape              Param #   
=================================================================
dense_5 (Dense)              (None, 64)                1344      
_________________________________________________________________
dense_6 (Dense)              (None, 32)                2080      
_________________________________________________________________
dense_7 (Dense)              (None, 8)                 264       
_________________________________________________________________
dense_8 (Dense)              (None, 3)                 27        
=================================================================
Total params: 3,715
Trainable params: 3,715
Non-trainable params: 0
_________________________________________________________________
 Final profits:  27.499999999999993
[4;33mReloaded modules[24m: agent, methods, finance_util[0m
Model: "sequential_2"
_________________________________________________________________
Layer (type)                 Output Shape              Param #   
=================================================================
dense_5 (Dense)              (None, 64)                1344      
_________________________________________________________________
dense_6 (Dense)              (None, 32)                2080      
_________________________________________________________________
dense_7 (Dense)              (None, 8)                 264       
_________________________________________________________________
dense_8 (Dense)              (None, 3)                 27        
=================================================================
Total params: 3,715
Trainable params: 3,715
Non-trainable params: 0
_________________________________________________________________
 Final profits:  -6.019999999999989
[4;33mReloaded modules[24m: agent, methods, finance_util[0m
Model: "sequential_2"
_________________________________________________________________
Layer (type)                 Output Shape              Param #   
=================================================================
dense_5 (Dense)              (None, 64)                1344      
_________________________________________________________________
dense_6 (Dense)              (None, 32)                2080      
_________________________________________________________________
dense_7 (Dense)              (None, 8)                 264       
_________________________________________________________________
dense_8 (Dense)              (None, 3)                 27        
=================================================================
Total params: 3,715
Trainable params: 3,715
Non-trainable params: 0
_________________________________________________________________
 Final profits:  -0.3999999999999986
[4;33mReloaded modules[24m: agent, methods, finance_util[0m
Model: "sequential_3"
_________________________________________________________________
Layer (type)                 Output Shape              Param #   
=================================================================
dense_9 (Dense)              (None, 64)                1344      
_________________________________________________________________
dense_10 (Dense)             (None, 32)                2080      
_________________________________________________________________
dense_11 (Dense)             (None, 8)                 264       
_________________________________________________________________
dense_12 (Dense)             (None, 3)                 27        
=================================================================
Total params: 3,715
Trainable params: 3,715
Non-trainable params: 0
_________________________________________________________________
 Final profits:  -9.590000000000003
[4;33mReloaded modules[24m: agent, methods, finance_util[0m
Model: "sequential_3"
_________________________________________________________________
Layer (type)                 Output Shape              Param #   
=================================================================
dense_9 (Dense)              (None, 64)                1344      
_________________________________________________________________
dense_10 (Dense)             (None, 32)                2080      
_________________________________________________________________
dense_11 (Dense)             (None, 8)                 264       
_________________________________________________________________
dense_12 (Dense)             (None, 3)                 27        
=================================================================
Total params: 3,715
Trainable params: 3,715
Non-trainable params: 0
_________________________________________________________________
 Final profits:  -22.85000000000001
[4;33mReloaded modules[24m: agent, methods, finance_util[0m
 No training data ! 
Aborted!
Model: "sequential_3"
_________________________________________________________________
Layer (type)                 Output Shape              Param #   
=================================================================
dense_9 (Dense)              (None, 64)                1344      
_________________________________________________________________
dense_10 (Dense)             (None, 32)                2080      
_________________________________________________________________
dense_11 (Dense)             (None, 8)                 264       
_________________________________________________________________
dense_12 (Dense)             (None, 3)                 27        
=================================================================
Total params: 3,715
Trainable params: 3,715
Non-trainable params: 0
_________________________________________________________________
 Final profits:  3.069999999999993
[4;33mReloaded modules[24m: agent, methods, finance_util[0m
Model: "sequential_3"
_________________________________________________________________
Layer (type)                 Output Shape              Param #   
=================================================================
dense_9 (Dense)              (None, 64)                1344      
_________________________________________________________________
dense_10 (Dense)             (None, 32)                2080      
_________________________________________________________________
dense_11 (Dense)             (None, 8)                 264       
_________________________________________________________________
dense_12 (Dense)             (None, 3)                 27        
=================================================================
Total params: 3,715
Trainable params: 3,715
Non-trainable params: 0
_________________________________________________________________
 Final profits:  2.319999999999993
[4;33mReloaded modules[24m: agent, methods, finance_util[0m
Model: "sequential_3"
_________________________________________________________________
Layer (type)                 Output Shape              Param #   
=================================================================
dense_9 (Dense)              (None, 64)                1344      
_________________________________________________________________
dense_10 (Dense)             (None, 32)                2080      
_________________________________________________________________
dense_11 (Dense)             (None, 8)                 264       
_________________________________________________________________
dense_12 (Dense)             (None, 3)                 27        
=================================================================
Total params: 3,715
Trainable params: 3,715
Non-trainable params: 0
_________________________________________________________________
 Final profits:  -22.85000000000001
